checkpoints/gmf_factor8neg4-implict_Epoch81_HR0.6469_NDCG0.3694.model (torch_old, 312847 bytes, 3 tensors)

embedding_user.weight f4 [6040, 8]
0.62892365 -1.5385958 2.0039253 -1.0568696 2.3369865 -1.8483996 2.7177277 0.6597178
-0.25172767 -0.93525803 -2.416125 -2.0691924 2.120666 0.39785784 1.3873096 -0.58034384
0.056081407 -0.79578125 -0.20728032 -1.7187946 2.9092643 -0.21142937 -1.5338764 -0.1706445
1.1493984 -4.4509597 -0.5436497 -1.9206021 3.235315 2.5201013 0.45990345 0.26149985
-2.1706414 -0.276831 1.0041121 0.6236231 1.5043988 0.27244163 1.9038768 1.3959751
1.1094619 -0.97792083 0.037870955 -3.6929104 1.7901586 -2.463108 1.2668457 -0.91075176
-1.2276212 -4.046384 -0.5008314 -2.2414577 2.9564698 1.5650616 0.037660856 -0.6977574
-2.7533927 -1.9145844 -1.047616 -0.43203142 1.4061518 -0.29764766 1.790593 1.1343191
-3.3875806 -1.6228238 0.35407782 -2.417394 2.629662 0.367752 1.8965309 1.3218296
0.85409707 0.2849129 1.0309558 -0.52851784 2.3006675 -1.6901679 0.586044 -1.7019682
-1.5614349 1.2141274 1.0564872 -0.78413826 1.676274 -0.89567477 0.13595986 1.6236911
-0.14315018 0.4588107 0.780756 -0.88337815 2.0216887 1.4886308 0.33653253 0.03161376
0.059816785 -2.1562097 -0.61185366 -1.483932 2.4118736 0.30518818 0.12604007 -2.669628
0.93247116 -1.2887201 1.6358969 0.029788978 2.3376644 0.20707904 0.27290928 3.0142794
-2.444853 -2.2424295 -1.0315436 -1.2711178 2.6592975 -1.4637176 -0.45059752 1.9942154
1.7428217 -4.6873503 2.4491756 -1.2443541 2.3728132 -3.2209783 -0.45901096 2.8767874
-0.4943225 -1.3535573 0.86644423 1.0382086 2.1541872 2.0543265 0.45446846 -0.6939936
-0.4672356 -0.9154187 -0.2990702 0.3665061 1.8111788 -1.0577346 0.6122463 -1.9267776
0.46204162 -1.8152728 0.77490234 1.320648 2.4484212 -0.54049456 -0.652712 -0.5944188
-1.5576203 -1.7310656 0.41268268 -0.7035282 2.6770382 1.3575026 -0.95930475 0.49664882
-0.82770133 -2.4713223 2.3538113 0.5813617 1.9028333 -1.3099338 -0.21866001 -0.7036242
-1.1890446 0.18073419 0.5615382 0.31700772 2.2336454 -0.35268143 -1.6859308 -0.121234685
-0.39720097 0.20240703 0.64469546 0.81728595 2.4719138 1.8721523 -0.2834455 -0.71614105
-0.11918216 0.93897325 0.017670533 -1.5418516 2.1615052 -0.67237073 0.3882544 0.5251959
-1.3269773 -2.8969853 2.293116 -0.26355967 2.885827 -0.34604284 -0.9693957 -0.66446143
-0.12549742 0.7174219 -1.1531299 -1.4379444 1.4424542 -2.2448287 -1.0321939 0.44410977
1.2266586 -0.31152683 1.7645079 -1.2993795 2.331962 1.214618 1.6381038 -0.4067664
0.117711656 -0.082720704 1.0305647 -0.32058963 2.3336024 0.09088127 2.1786892 0.2129258
1.041107 -3.196117 -1.7488092 -1.6921569 2.6529725 2.5471883 -0.96367294 -0.71650016
-1.5906501 -1.6136183 0.8970538 -0.7899573 1.6580658 0.99503005 2.7922459 2.1990004
1.9186102 1.0024766 2.5020063 -3.9263532 1.8712611 -0.12810807 -0.57935375 -1.3108056
-1.5578952 -0.71496284 0.58006144 -1.1787946 2.2976825 0.48001873 2.4781945 1.3357338
00000000: 2401 213f b5f0 c4bf 5040 0040 8147 87bf
00000010: 3091 1540 5c98 ecbf 40ef 2d40 44e3 283f
00000020: 73e2 80be 126d 6fbf cba1 1ac0 a66d 04c0
00000030: feb8 0740 06b4 cb3e 5c93 b13f 6a91 14bf
00000040: 9eb5 653d 52b8 4bbf 4b41 54be 7601 dcbf
00000050: 6331 3a40 f180 58be 1056 c4bf 6fbd 2ebe
00000060: 7d1f 933f 436e 8ec0 a02c 0bbf 4ad6 f5bf
00000070: 670f 4f40 5749 2140 7778 eb3e 4fe3 853e
00000080: caeb 0ac0 cbbc 8dbe bf86 803f c3a5 1f3f
00000090: 2490 c03f 787d 8b3e 3cb2 f33f 50af b23f
000000a0: d902 8e3f 0559 7abf 931e 1b3d a558 6cc0
000000b0: eb23 e53f 90a3 1dc0 0028 a23f 0727 69bf
000000c0: b122 9dbf fa7b 81c0 7d36 00bf 0b74 0fc0
000000d0: cd36 3d40 f053 c83f 4542 1a3d 3ba0 32bf
000000e0: 9637 30c0 1a11 f5bf 4818 86bf 3933 ddbe
000000f0: c8fc b33f 4665 98be 2732 e53f 5e31 913f
00000100: 1fce 58c0 b1b8 cfbf b049 b53e 95b6 1ac0
00000110: 624c 2840 fd49 bc3e 86c1 f23f b631 a93f
00000120: 1ba6 5a3f 1be0 913e 5cf6 833f f24c 07bf
00000130: 233e 1340 6c57 d8bf fb06 163f 18da d9bf
00000140: 19dd c7bf 8768 9b3f f93a 873f 49bd 48bf
00000150: 2590 d63f f14a 65bf 1039 0b3e 1cd5 cf3f
00000160: f695 12be 3ce9 ea3e a0df 473f 1225 62bf
00000170: 5963 0140 748b be3f fe4d ac3e 6e7d 013d
00000180: 7202 753d 57ff 09c0 71a2 1cbf 7cf1 bdbf
00000190: 235c 1a40 a041 9c3e a610 013e 2fdb 2ac0
000001a0: 6eb6 6e3f c8f4 a4bf 1265 d13f 0408 f43c
000001b0: 4b9c 1540 870c 543e c4ba 8b3e f4e9 4040
000001c0: 7978 1cc0 f783 0fc0 9f09 84bf fdb3 a2bf
000001d0: ee31 2a40 195b bbbf b8b4 e6be 7342 ff3f
000001e0: c814 df3f c6fe 95c0 4bbf 1c40 ff46 9fbf
000001f0: 2cdc 1740 8224 4ec0 7c03 ebbe 491d 3840
00000200: d717 fdbe 5e41 adbf 4acf 5d3f 05e4 843f
00000210: 34de 0940 167a 0340 17b0 e83e 91a9 31bf
00000220: 8139 efbe e158 6abf bb1f 99be b0a6 bb3e
00000230: b5d4 e73f d963 87bf 2cbc 1c3f a6a0 f6bf
00000240: b890 ec3e dc5a e8bf 0060 463f fe0a a93f
00000250: efb2 1c40 da5d 0abf 2218 27bf d52b 18bf
00000260: 1a60 c7bf 8f93 ddbf 254b d33e 6d1a 34bf
00000270: 9854 2b40 a5c2 ad3f ff94 75bf c148 fe3e
00000280: 3ce4 53bf 252a 1ec0 d8a4 1640 1fd4 143f
00000290: 0b90 f33f e9ab a7bf 69e8 5fbe b720 34bf
000002a0: 9d32 98bf 6212 393e f8c0 0f3f d64e a23e
000002b0: 0cf4 0e40 a992 b4be 95cc d7bf e449 f8bd
000002c0: ed5d cbbe ca43 4f3e c30a 253f a739 513f
000002d0: d633 1e40 b0a2 ef3f c51f 91be 0555 37bf
000002e0: c715 f4bd 8d60 703f cbc1 903c 655b c5bf
000002f0: 1a56 0a40 7d20 2cbf 48c9 c63e 3d73 063f
00000300: 64da a9bf 3568 39c0 6ac2 1240 4bf1 86be
00000310: 64b1 3840 872c b1be 512a 78bf 251a 2abf
00000320: 6582 00be f6a8 373f c399 93bf 900e b8bf
00000330: 57a2 b83f 46ab 0fc0 ee1e 84bf 5b62 e33e
00000340: 2603 9d3f 7280 9fbe 65db e13f 1152 a6bf
00000350: de3e 1540 9a78 9b3f 63ad d13f b043 d0be
00000360: cf12 f13d 7969 a9bd 8be9 833f 5324 a4be
00000370: be59 1540 f61f ba3d a56f 0b40 3909 5a3e
00000380: ff42 853f 2e8d 4cc0 fbd8 dfbf 9998 d8bf
00000390: 4dca 2940 2205 2340 45b3 76bf 8e6c 37bf
000003a0: 6c9a cbbf 0b8b cebf 51a5 653f a43a 4abf
000003b0: 803b d43f 4aba 7e3f 28b4 3240 6cbc 0c40
000003c0: 0595 f53f 2751 803f df20 2040 5f49 7bc0
000003d0: 7c85 ef3f c32e 03be 8750 14bf 7ac8 a7bf
000003e0: 1c69 c7bf ce07 37bf e87e 143f bee2 96bf
000003f0: 3b0d 1340 04c5 f53e bd9a 1e40 53f9 aa3f

embedding_item.weight f4 [3706, 8]
0.6905347 -0.62441427 0.56435925 0.28998476 2.6114724 0.15405877 -0.9204425 -0.7447329
-0.10051865 -0.013214599 -1.3454828 1.4530249 0.6758744 -0.9273628 -1.0171483 1.1883913
1.3190601 -0.80137587 0.50309116 0.51777667 0.28968906 -1.4315622 -2.3077705 1.7300636
-0.55562943 0.024095414 0.039017227 0.006060748 1.7322809 -0.6184814 -0.7277475 -1.4232284
-0.2751573 -0.16638736 -0.81462264 0.27605247 2.412149 -1.4387546 -0.26520753 -0.047175437
0.06379518 -1.1095943 -0.22940443 0.21251307 3.4645023 -0.41624314 -0.2639749 0.85811204
1.2610931 0.14307225 1.7258865 0.3471858 1.0995793 0.16942762 -0.75535506 1.5833659
0.684991 -1.381108 -0.33507538 0.5204471 2.484524 -0.4650908 -0.019083561 -0.41239345
1.0643936 -0.5142555 -0.87907153 1.9756649 0.9352434 -1.8717314 -1.8436416 2.2601724
1.0401512 -0.74783796 0.413827 0.9904934 2.8934047 -0.8809255 -1.6921245 1.0585507
-0.19832577 -0.25998512 -0.44001845 1.4903065 1.6923023 -2.2321737 -1.8303069 1.8904085
1.7475319 -0.75930315 -0.25816876 0.67822903 -1.9123465 -1.1006607 -2.3818386 1.9383956
1.5611206 -0.39126983 0.89034724 0.9551463 0.021071948 -1.332516 -1.7187248 0.5602975
0.54997617 -2.540967 -0.0066494765 0.34118387 2.8992739 -1.2348188 0.5646499 -0.07267965
0.86682177 -0.5341082 -0.46371764 0.9637606 1.5529982 -1.264932 -1.4055132 0.5489222
0.67921656 -1.7726676 -0.57365865 0.66141415 2.9690042 -0.5513039 0.32773525 -0.2677321
-0.09346443 0.46447048 -0.57158023 0.8697038 0.33291954 -1.3105526 -0.99943274 1.324977
1.0675608 -0.3421698 -0.5390474 1.6118191 0.7342985 -1.6765145 -1.4063238 1.6851083
-0.26381063 -0.9481721 1.7876678 0.6903042 0.8389173 -1.3248456 -1.3059405 -0.7456097
0.79248697 -2.0366702 -0.048895195 0.6589418 3.001409 -1.1314023 0.3050035 0.81221294
-1.0236338 -1.5221452 -0.26313365 0.039798435 1.9199383 -1.0766037 -0.29119855 0.12887365
-0.6171269 -0.5093988 -1.2207106 0.685598 0.4307996 0.42398068 -1.1469475 0.9402224
0.59670466 -1.5069649 -0.19890387 0.47962287 4.1717916 -0.59230995 0.20149232 0.7621961
-0.31837007 -0.35794947 1.1108999 0.51015884 3.108257 -0.2814664 -1.3447018 -0.4879692
-0.39349982 -0.25068623 1.0447681 -0.3158948 -0.10002266 -1.1805863 -0.042548418 -0.40176105
-0.24464755 0.38343492 -0.5468237 1.0856893 -0.56435955 -2.4939868 -1.1973717 2.104459
0.7710937 -0.70627177 0.18019563 0.89995736 3.7429852 -0.7164597 -0.6380617 0.8316312
-0.6136641 -0.12303963 0.944321 0.069809556 2.2307737 -1.3286026 -0.8622644 -0.112274915
-0.6064109 -0.25573978 0.45148277 0.5055473 -2.3627455 0.2746214 -1.7393739 -0.81192213
-0.7375677 -0.80500245 -1.5556722 0.19054541 0.7675699 0.56907535 -1.047822 1.1456935
-0.55149347 -0.23157322 -0.30952045 1.0277358 1.0012453 -1.5818762 -0.8003274 1.3300091
-0.7162726 -0.3446275 0.16009952 0.31137195 0.24539804 -0.5712577 -0.30495313 -1.4589095
00000000: e2c6 303f 9dd9 1fbf d979 103f e278 943e
00000010: 5d22 2740 95c1 1d3e 1fa2 6bbf d1a6 3ebf
00000020: b9dc cdbd 0c82 58bc c838 acbf b8fc b93f
00000030: 1b06 2d3f a667 6dbf ea31 82bf 351d 983f
00000040: f6d6 a83f f826 4dbf 95ca 003f 038d 043f
00000050: 2052 943e 6e3d b7bf 83b2 13c0 b972 dd3f
00000060: bb3d 0ebf bf63 c53c 87d0 1f3d 3d99 c63b
00000070: 61bb dd3f cc54 1ebf a94d 3abf 592c b6bf
00000080: 6be1 8cbe 7361 2abe 1c8b 50bf c056 8d3e
00000090: a660 1a40 1c29 b8bf 48c9 87be 083b 41bd
000000a0: 0ca7 823d 3007 8ebf ffe8 6abe 079d 593e
000000b0: 68ba 5d40 d21d d5be b827 87be 3bad 5b3f
000000c0: 806b a13f 8881 123e d9e9 dc3f 56c2 b13e
000000d0: 04bf 8c3f 6f7e 2d3e f35e 41bf bcab ca3f
000000e0: 925b 2f3f 26c8 b0bf 008f abbe 053c 053f
000000f0: 7102 1f40 6220 eebe 2155 9cbc 3c25 d3be
00000100: 0d3e 883f 40a6 03bf d50a 61bf 96e2 fc3f
00000110: 1d6c 6f3f e594 efbf 73fc ebbf aaa6 1040
00000120: ad23 853f 4f72 3fbf 22e1 d33e fa90 7d3f
00000130: 8b2d 3940 5584 61bf 8997 d8bf 977e 873f
00000140: e915 4bbe c51c 85be 194a e1be 5dc2 be3f
00000150: 5d9d d83f efdb 0ec0 7f47 eabf e8f8 f13f
00000160: 20af df3f b161 42bf b22e 84be 6ba0 2d3f
00000170: c5c7 f4bf 73e2 8cbf 0b70 18c0 591d f83f
00000180: cdd2 c73f 8554 c8be cced 633f 7884 743f
00000190: 149f ac3c e28f aabf 2dff dbbf a86f 0f3f
000001a0: 3dcb 0c3f 349f 22c0 dae3 d9bb a7af ae3e
000001b0: b48d 3940 8b0e 9ebf e58c 103f 11d9 94bd
000001c0: 08e8 5d3f 51bb 08bf 666c edbe 04b9 763f
000001d0: a5c8 c63f 4be9 a1bf dbe7 b3bf 2a86 0c3f
000001e0: 23e1 2d3f c6e6 e2bf 4bdb 12bf 7052 293f
000001f0: 2a04 3e40 4122 0dbf eacc a73e 2f14 89be
00000200: 476a bfbd 13cf ed3e 1553 12bf e9a4 5e3f
00000210: 6e74 aa3e 30c0 a7bf d3da 7fbf d998 a93f
00000220: d5a5 883f e130 afbe 03ff 09bf 1750 ce3f
00000230: fdfa 3b3f 0798 d6bf 6b02 b4bf a1b1 d73f
00000240: 3012 87be 68bb 72bf 4cd2 e43f c7b7 303f
00000250: 49c3 563f 8a94 a9bf 0f29 a7bf 47e0 3ebf
00000260: 6de0 4a3f ce58 02c0 5446 48bd 69b0 283f
00000270: 1617 4040 cad1 90bf 6b29 9c3e 30ed 4f3f
00000280: 6f06 83bf a7d5 c2bf 74b9 86be af03 233d
00000290: 8ac0 f53f 26ce 89bf fa17 95be 74f7 033e
000002a0: 07fc 1dbf f667 02bf 3f40 9cbf 5a83 2f3f
000002b0: c491 dc3e ff13 d93e 2dcf 92bf 6ab2 703f
000002c0: a3c1 183f 3ae4 c0bf 75ad 4bbe 2191 f53e
000002d0: 517f 8540 a0a1 17bf 0154 4e3e 491f 433f
000002e0: 6701 a3be 2745 b7be f831 8e3f c599 023f
000002f0: afed 4640 5d1c 90be 301f acbf 19d7 f9be
00000300: cf78 c9be f259 80be f6ba 853f f7bc a1be
00000310: aed8 ccbd 741d 97bf 4047 2ebd a0b3 cdbe
00000320: e384 7abe 9551 c43e a3fc 0bbf def7 8a3f
00000330: de79 10bf 7b9d 1fc0 7a43 99bf 75af 0640
00000340: 6666 453f 3ace 34bf 3485 383e 9b63 663f
00000350: 128d 6f40 e769 37bf 0358 23bf c8e5 543f
00000360: 1719 1dbf 34fc fbbd 05bf 713f 50f8 8e3d
00000370: ffc4 0e40 a60f aabf 5cbd 5cbf 64f0 e5bd
00000380: bf3d 1bbf 53f0 82be c028 e73e 8c6b 013f
00000390: 3937 17c0 2d9b 8c3e cea3 debf 21da 4fbf
000003a0: 3dd1 3cbf a414 4ebf 4420 c7bf 561e 433e
000003b0: 767f 443f ecae 113f 081f 86bf 16a6 923f
000003c0: ad2e 0dbf 8821 6dbe 7779 9ebe d98c 833f
000003d0: ce28 803f eb7a cabf 42e2 4cbf bd3d aa3f
000003e0: a45d 37bf 0473 b0be 21f1 233e 256c 9f3e
000003f0: a049 7b3e f23d 12bf d122 9cbe 8cbd babf

affine_output.weight f4 [1, 8]
0.5637726 -0.48573086 -0.41845325 0.5007591 0.49087816 0.53590125 -0.58557844 -0.41776726
00000000: 6753 103f b7b1 f8be 813f d6be c031 003f
00000010: 6254 fb3e d330 093f 78e8 15bf 97e5 d5be
